…
wandb: Run data is saved locally in /workspace/AIsys-project/wandb/offline-run-20251228_170027-2tgad7sd
`torch_dtype` is deprecated! Use `dtype` instead!
Loading checkpoint shards:   0%|          | 0/3 [00:00<?, ?it/s]Loading checkpoint shards:  33%|███▎      | 1/3 [00:00<00:01,  1.84it/s]Loading checkpoint shards:  67%|██████▋   | 2/3 [00:01<00:00,  1.84it/s]Loading checkpoint shards: 100%|██████████| 3/3 [00:01<00:00,  2.09it/s]Loading checkpoint shards: 100%|██████████| 3/3 [00:01<00:00,  2.01it/s]
INFO:__main__:使用微调方法: PRUNEPEFT
INFO:__main__:原始模型结构:
INFO:__main__:LlamaForCausalLM(
  (model): LlamaModel(
    (embed_tokens): Embedding(32000, 4096, padding_idx=0)
    (layers): ModuleList(
      (0-31): 32 x LlamaDecoderLayer(
        (self_attn): LlamaAttention(
          (q_proj): Linear(in_features=4096, out_features=4096, bias=False)
          (k_proj): Linear(in_features=4096, out_features=4096, bias=False)
          (v_proj): Linear(in_features=4096, out_features=4096, bias=False)
          (o_proj): Linear(in_features=4096, out_features=4096, bias=False)
        )
        (mlp): LlamaMLP(
          (gate_proj): Linear(in_features=4096, out_features=11008, bias=False)
          (up_proj): Linear(in_features=4096, out_features=11008, bias=False)
          (down_proj): Linear(in_features=11008, out_features=4096, bias=False)
          (act_fn): SiLUActivation()
        )
        (input_layernorm): LlamaRMSNorm((4096,), eps=1e-05)
        (post_attention_layernorm): LlamaRMSNorm((4096,), eps=1e-05)
      )
    )
    (norm): LlamaRMSNorm((4096,), eps=1e-05)
    (rotary_emb): LlamaRotaryEmbedding()
  )
  (lm_head): Linear(in_features=4096, out_features=32000, bias=False)
)
INFO:__main__:创建PrunePEFT配置
INFO:__main__:PrunePEFT (LORA,BOTTLENECK) 配置:
INFO:__main__:  LoRA - r: 8, alpha: 16, dropout: 0.100
INFO:__main__:  LoRA layers (raw input): (2, 3, 4)
INFO:__main__:  LoRA layers (config): [2, 3, 4]
INFO:__main__:  Bottleneck - size: 64, dropout: 0.100
INFO:__main__:  Bottleneck adapter layers (raw input): (0, 1, 2)
INFO:__main__:  Bottleneck adapter layers (config): [0, 1, 2]
INFO:__main__:  target_modules: None
INFO:__main__:PEFT模型配置完成
INFO:__main__:PrunePEFT模型结构:
INFO:__main__:PeftModelForCausalLM(
  (base_model): PrunePEFTModel(
    (model): LlamaForCausalLM(
      (model): LlamaModel(
        (embed_tokens): Embedding(32000, 4096, padding_idx=0)
        (layers): ModuleList(
          (0-1): 2 x LlamaDecoderLayer(
            (self_attn): BlockWithAdapter(
              (base_block): LlamaAttention(
                (q_proj): Linear(in_features=4096, out_features=4096, bias=False)
                (k_proj): Linear(in_features=4096, out_features=4096, bias=False)
                (v_proj): Linear(in_features=4096, out_features=4096, bias=False)
                (o_proj): Linear(in_features=4096, out_features=4096, bias=False)
              )
              (adapter_layer): BottleneckBlockAdapter(bottleneck_size=64)
            )
            (mlp): BlockWithAdapter(
              (base_block): LlamaMLP(
                (gate_proj): Linear(in_features=4096, out_features=11008, bias=False)
                (up_proj): Linear(in_features=4096, out_features=11008, bias=False)
                (down_proj): Linear(in_features=11008, out_features=4096, bias=False)
                (act_fn): SiLUActivation()
              )
              (adapter_layer): BottleneckBlockAdapter(bottleneck_size=64)
            )
            (input_layernorm): LlamaRMSNorm((4096,), eps=1e-05)
            (post_attention_layernorm): LlamaRMSNorm((4096,), eps=1e-05)
          )
          (2): LlamaDecoderLayer(
            (self_attn): BlockWithAdapter(
              (base_block): LlamaAttention(
                (q_proj): lora.Linear(
                  (base_layer): Linear(in_features=4096, out_features=4096, bias=False)
                  (lora_dropout): ModuleDict(
                    (default): Dropout(p=0.1, inplace=False)
                  )
                  (lora_A): ModuleDict(
                    (default): Linear(in_features=4096, out_features=32, bias=False)
                  )
                  (lora_B): ModuleDict(
                    (default): Linear(in_features=32, out_features=4096, bias=False)
                  )
                  (lora_embedding_A): ParameterDict()
                  (lora_embedding_B): ParameterDict()
                  (lora_magnitude_vector): ModuleDict()
                )
                (k_proj): Linear(in_features=4096, out_features=4096, bias=False)
                (v_proj): lora.Linear(
                  (base_layer): Linear(in_features=4096, out_features=4096, bias=False)
                  (lora_dropout): ModuleDict(
                    (default): Dropout(p=0.1, inplace=False)
                  )
                  (lora_A): ModuleDict(
                    (default): Linear(in_features=4096, out_features=32, bias=False)
                  )
                  (lora_B): ModuleDict(
                    (default): Linear(in_features=32, out_features=4096, bias=False)
                  )
                  (lora_embedding_A): ParameterDict()
                  (lora_embedding_B): ParameterDict()
                  (lora_magnitude_vector): ModuleDict()
                )
                (o_proj): Linear(in_features=4096, out_features=4096, bias=False)
              )
              (adapter_layer): BottleneckBlockAdapter(bottleneck_size=64)
            )
            (mlp): BlockWithAdapter(
              (base_block): LlamaMLP(
                (gate_proj): Linear(in_features=4096, out_features=11008, bias=False)
                (up_proj): Linear(in_features=4096, out_features=11008, bias=False)
                (down_proj): Linear(in_features=11008, out_features=4096, bias=False)
                (act_fn): SiLUActivation()
              )
              (adapter_layer): BottleneckBlockAdapter(bottleneck_size=64)
            )
            (input_layernorm): LlamaRMSNorm((4096,), eps=1e-05)
            (post_attention_layernorm): LlamaRMSNorm((4096,), eps=1e-05)
          )
          (3-4): 2 x LlamaDecoderLayer(
            (self_attn): LlamaAttention(
              (q_proj): lora.Linear(
                (base_layer): Linear(in_features=4096, out_features=4096, bias=False)
                (lora_dropout): ModuleDict(
                  (default): Dropout(p=0.1, inplace=False)
                )
                (lora_A): ModuleDict(
                  (default): Linear(in_features=4096, out_features=32, bias=False)
                )
                (lora_B): ModuleDict(
                  (default): Linear(in_features=32, out_features=4096, bias=False)
                )
                (lora_embedding_A): ParameterDict()
                (lora_embedding_B): ParameterDict()
                (lora_magnitude_vector): ModuleDict()
              )
              (k_proj): Linear(in_features=4096, out_features=4096, bias=False)
              (v_proj): lora.Linear(
                (base_layer): Linear(in_features=4096, out_features=4096, bias=False)
                (lora_dropout): ModuleDict(
                  (default): Dropout(p=0.1, inplace=False)
                )
                (lora_A): ModuleDict(
                  (default): Linear(in_features=4096, out_features=32, bias=False)
                )
                (lora_B): ModuleDict(
                  (default): Linear(in_features=32, out_features=4096, bias=False)
                )
                (lora_embedding_A): ParameterDict()
                (lora_embedding_B): ParameterDict()
                (lora_magnitude_vector): ModuleDict()
              )
              (o_proj): Linear(in_features=4096, out_features=4096, bias=False)
            )
            (mlp): LlamaMLP(
              (gate_proj): Linear(in_features=4096, out_features=11008, bias=False)
              (up_proj): Linear(in_features=4096, out_features=11008, bias=False)
              (down_proj): Linear(in_features=11008, out_features=4096, bias=False)
              (act_fn): SiLUActivation()
            )
            (input_layernorm): LlamaRMSNorm((4096,), eps=1e-05)
            (post_attention_layernorm): LlamaRMSNorm((4096,), eps=1e-05)
          )
          (5-31): 27 x LlamaDecoderLayer(
            (self_attn): LlamaAttention(
              (q_proj): Linear(in_features=4096, out_features=4096, bias=False)
              (k_proj): Linear(in_features=4096, out_features=4096, bias=False)
              (v_proj): Linear(in_features=4096, out_features=4096, bias=False)
              (o_proj): Linear(in_features=4096, out_features=4096, bias=False)
            )
            (mlp): LlamaMLP(
              (gate_proj): Linear(in_features=4096, out_features=11008, bias=False)
              (up_proj): Linear(in_features=4096, out_features=11008, bias=False)
              (down_proj): Linear(in_features=11008, out_features=4096, bias=False)
              (act_fn): SiLUActivation()
            )
            (input_layernorm): LlamaRMSNorm((4096,), eps=1e-05)
            (post_attention_layernorm): LlamaRMSNorm((4096,), eps=1e-05)
          )
        )
        (norm): LlamaRMSNorm((4096,), eps=1e-05)
        (rotary_emb): LlamaRotaryEmbedding()
      )
      (lm_head): Linear(in_features=4096, out_features=32000, bias=False)
    )
  )
)
INFO:__main__:DEBUG LoRA ranks: base_model.model.model.layers.2.self_attn.base_block.q_proj -> r_true=8, r_alloc=32
INFO:__main__:DEBUG LoRA ranks: base_model.model.model.layers.2.self_attn.base_block.v_proj -> r_true=8, r_alloc=32
INFO:__main__:DEBUG LoRA ranks: base_model.model.model.layers.3.self_attn.q_proj -> r_true=16, r_alloc=32
INFO:__main__:DEBUG LoRA ranks: base_model.model.model.layers.3.self_attn.v_proj -> r_true=16, r_alloc=32
…
